backend: tensorflow
class_name: Sequential
config:
  layers:
  - class_name: LSTM
    config:
      activation: tanh
      activity_regularizer: null
      bias_constraint: null
      bias_initializer:
        class_name: Zeros
        config: {}
      bias_regularizer: null
      dropout: 0.0
      go_backwards: false
      implementation: 1
      kernel_constraint: null
      kernel_initializer:
        class_name: VarianceScaling
        config:
          distribution: uniform
          mode: fan_avg
          scale: 1.0
          seed: null
      kernel_regularizer: null
      name: lstm_1
      recurrent_activation: hard_sigmoid
      recurrent_constraint: null
      recurrent_dropout: 0.0
      recurrent_initializer:
        class_name: Orthogonal
        config:
          gain: 1.0
          seed: null
      recurrent_regularizer: null
      return_sequences: true
      return_state: false
      stateful: true
      trainable: true
      unit_forget_bias: true
      units: 256
      unroll: false
      use_bias: true
  - class_name: Dropout
    config:
      name: dropout_1
      noise_shape: null
      rate: 0.2
      seed: null
      trainable: true
  - class_name: LSTM
    config:
      activation: tanh
      activity_regularizer: null
      bias_constraint: null
      bias_initializer:
        class_name: Zeros
        config: {}
      bias_regularizer: null
      dropout: 0.0
      go_backwards: false
      implementation: 1
      kernel_constraint: null
      kernel_initializer:
        class_name: VarianceScaling
        config:
          distribution: uniform
          mode: fan_avg
          scale: 1.0
          seed: null
      kernel_regularizer: null
      name: lstm_2
      recurrent_activation: hard_sigmoid
      recurrent_constraint: null
      recurrent_dropout: 0.0
      recurrent_initializer:
        class_name: Orthogonal
        config:
          gain: 1.0
          seed: null
      recurrent_regularizer: null
      return_sequences: true
      return_state: false
      stateful: true
      trainable: true
      unit_forget_bias: true
      units: 256
      unroll: false
      use_bias: true
  - class_name: Dropout
    config:
      name: dropout_2
      noise_shape: null
      rate: 0.2
      seed: null
      trainable: true
  - class_name: LSTM
    config:
      activation: tanh
      activity_regularizer: null
      bias_constraint: null
      bias_initializer:
        class_name: Zeros
        config: {}
      bias_regularizer: null
      dropout: 0.0
      go_backwards: false
      implementation: 1
      kernel_constraint: null
      kernel_initializer:
        class_name: VarianceScaling
        config:
          distribution: uniform
          mode: fan_avg
          scale: 1.0
          seed: null
      kernel_regularizer: null
      name: lstm_3
      recurrent_activation: hard_sigmoid
      recurrent_constraint: null
      recurrent_dropout: 0.0
      recurrent_initializer:
        class_name: Orthogonal
        config:
          gain: 1.0
          seed: null
      recurrent_regularizer: null
      return_sequences: true
      return_state: false
      stateful: true
      trainable: true
      unit_forget_bias: true
      units: 256
      unroll: false
      use_bias: true
  - class_name: Dropout
    config:
      name: dropout_3
      noise_shape: null
      rate: 0.2
      seed: null
      trainable: true
  - class_name: TimeDistributed
    config:
      layer:
        class_name: Dense
        config:
          activation: linear
          activity_regularizer: null
          bias_constraint: null
          bias_initializer:
            class_name: Zeros
            config: {}
          bias_regularizer: null
          kernel_constraint: null
          kernel_initializer:
            class_name: VarianceScaling
            config:
              distribution: uniform
              mode: fan_avg
              scale: 1.0
              seed: null
          kernel_regularizer: null
          name: dense_1
          trainable: true
          units: 90
          use_bias: true
      name: time_distributed_1
      trainable: true
  - class_name: Activation
    config:
      activation: softmax
      name: activation_1
      trainable: true
  name: sequential_1
keras_version: 2.2.4
backend: tensorflow
class_name: Sequential
config:
  layers:
  - class_name: LSTM
    config:
      activation: tanh
      activity_regularizer: null
      batch_input_shape: !!python/tuple
      - 128
      - 60
      - 90
      bias_constraint: null
      bias_initializer:
        class_name: Zeros
        config: {}
      bias_regularizer: null
      dropout: 0.0
      dtype: float32
      go_backwards: false
      implementation: 1
      kernel_constraint: null
      kernel_initializer:
        class_name: VarianceScaling
        config:
          distribution: uniform
          mode: fan_avg
          scale: 1.0
          seed: null
      kernel_regularizer: null
      name: lstm_1
      recurrent_activation: hard_sigmoid
      recurrent_constraint: null
      recurrent_dropout: 0.0
      recurrent_initializer:
        class_name: Orthogonal
        config:
          gain: 1.0
          seed: null
      recurrent_regularizer: null
      return_sequences: true
      return_state: false
      stateful: true
      trainable: true
      unit_forget_bias: true
      units: 256
      unroll: false
      use_bias: true
  - class_name: Dropout
    config:
      name: dropout_1
      noise_shape: null
      rate: 0.2
      seed: null
      trainable: true
  - class_name: LSTM
    config:
      activation: tanh
      activity_regularizer: null
      batch_input_shape: !!python/tuple
      - 128
      - 60
      - 90
      bias_constraint: null
      bias_initializer:
        class_name: Zeros
        config: {}
      bias_regularizer: null
      dropout: 0.0
      dtype: float32
      go_backwards: false
      implementation: 1
      kernel_constraint: null
      kernel_initializer:
        class_name: VarianceScaling
        config:
          distribution: uniform
          mode: fan_avg
          scale: 1.0
          seed: null
      kernel_regularizer: null
      name: lstm_2
      recurrent_activation: hard_sigmoid
      recurrent_constraint: null
      recurrent_dropout: 0.0
      recurrent_initializer:
        class_name: Orthogonal
        config:
          gain: 1.0
          seed: null
      recurrent_regularizer: null
      return_sequences: true
      return_state: false
      stateful: true
      trainable: true
      unit_forget_bias: true
      units: 256
      unroll: false
      use_bias: true
  - class_name: Dropout
    config:
      name: dropout_2
      noise_shape: null
      rate: 0.2
      seed: null
      trainable: true
  - class_name: LSTM
    config:
      activation: tanh
      activity_regularizer: null
      batch_input_shape: !!python/tuple
      - 128
      - 60
      - 90
      bias_constraint: null
      bias_initializer:
        class_name: Zeros
        config: {}
      bias_regularizer: null
      dropout: 0.0
      dtype: float32
      go_backwards: false
      implementation: 1
      kernel_constraint: null
      kernel_initializer:
        class_name: VarianceScaling
        config:
          distribution: uniform
          mode: fan_avg
          scale: 1.0
          seed: null
      kernel_regularizer: null
      name: lstm_3
      recurrent_activation: hard_sigmoid
      recurrent_constraint: null
      recurrent_dropout: 0.0
      recurrent_initializer:
        class_name: Orthogonal
        config:
          gain: 1.0
          seed: null
      recurrent_regularizer: null
      return_sequences: true
      return_state: false
      stateful: true
      trainable: true
      unit_forget_bias: true
      units: 256
      unroll: false
      use_bias: true
  - class_name: Dropout
    config:
      name: dropout_3
      noise_shape: null
      rate: 0.2
      seed: null
      trainable: true
  - class_name: TimeDistributed
    config:
      layer:
        class_name: Dense
        config:
          activation: linear
          activity_regularizer: null
          bias_constraint: null
          bias_initializer:
            class_name: Zeros
            config: {}
          bias_regularizer: null
          kernel_constraint: null
          kernel_initializer:
            class_name: VarianceScaling
            config:
              distribution: uniform
              mode: fan_avg
              scale: 1.0
              seed: null
          kernel_regularizer: null
          name: dense_1
          trainable: true
          units: 90
          use_bias: true
      name: time_distributed_1
      trainable: true
  - class_name: Activation
    config:
      activation: softmax
      name: activation_1
      trainable: true
  name: sequential_1
keras_version: 2.2.4
backend: tensorflow
class_name: Sequential
config:
  layers:
  - class_name: LSTM
    config:
      activation: tanh
      activity_regularizer: null
      batch_input_shape: !!python/tuple
      - 128
      - 60
      - 90
      bias_constraint: null
      bias_initializer:
        class_name: Zeros
        config: {}
      bias_regularizer: null
      dropout: 0.0
      dtype: float32
      go_backwards: false
      implementation: 1
      kernel_constraint: null
      kernel_initializer:
        class_name: VarianceScaling
        config:
          distribution: uniform
          mode: fan_avg
          scale: 1.0
          seed: null
      kernel_regularizer: null
      name: lstm_1
      recurrent_activation: hard_sigmoid
      recurrent_constraint: null
      recurrent_dropout: 0.0
      recurrent_initializer:
        class_name: Orthogonal
        config:
          gain: 1.0
          seed: null
      recurrent_regularizer: null
      return_sequences: true
      return_state: false
      stateful: true
      trainable: true
      unit_forget_bias: true
      units: 256
      unroll: false
      use_bias: true
  - class_name: Dropout
    config:
      name: dropout_1
      noise_shape: null
      rate: 0.2
      seed: null
      trainable: true
  - class_name: LSTM
    config:
      activation: tanh
      activity_regularizer: null
      batch_input_shape: !!python/tuple
      - 128
      - 60
      - 90
      bias_constraint: null
      bias_initializer:
        class_name: Zeros
        config: {}
      bias_regularizer: null
      dropout: 0.0
      dtype: float32
      go_backwards: false
      implementation: 1
      kernel_constraint: null
      kernel_initializer:
        class_name: VarianceScaling
        config:
          distribution: uniform
          mode: fan_avg
          scale: 1.0
          seed: null
      kernel_regularizer: null
      name: lstm_2
      recurrent_activation: hard_sigmoid
      recurrent_constraint: null
      recurrent_dropout: 0.0
      recurrent_initializer:
        class_name: Orthogonal
        config:
          gain: 1.0
          seed: null
      recurrent_regularizer: null
      return_sequences: true
      return_state: false
      stateful: true
      trainable: true
      unit_forget_bias: true
      units: 256
      unroll: false
      use_bias: true
  - class_name: Dropout
    config:
      name: dropout_2
      noise_shape: null
      rate: 0.2
      seed: null
      trainable: true
  - class_name: LSTM
    config:
      activation: tanh
      activity_regularizer: null
      batch_input_shape: !!python/tuple
      - 128
      - 60
      - 90
      bias_constraint: null
      bias_initializer:
        class_name: Zeros
        config: {}
      bias_regularizer: null
      dropout: 0.0
      dtype: float32
      go_backwards: false
      implementation: 1
      kernel_constraint: null
      kernel_initializer:
        class_name: VarianceScaling
        config:
          distribution: uniform
          mode: fan_avg
          scale: 1.0
          seed: null
      kernel_regularizer: null
      name: lstm_3
      recurrent_activation: hard_sigmoid
      recurrent_constraint: null
      recurrent_dropout: 0.0
      recurrent_initializer:
        class_name: Orthogonal
        config:
          gain: 1.0
          seed: null
      recurrent_regularizer: null
      return_sequences: true
      return_state: false
      stateful: true
      trainable: true
      unit_forget_bias: true
      units: 256
      unroll: false
      use_bias: true
  - class_name: Dropout
    config:
      name: dropout_3
      noise_shape: null
      rate: 0.2
      seed: null
      trainable: true
  - class_name: TimeDistributed
    config:
      layer:
        class_name: Dense
        config:
          activation: linear
          activity_regularizer: null
          bias_constraint: null
          bias_initializer:
            class_name: Zeros
            config: {}
          bias_regularizer: null
          kernel_constraint: null
          kernel_initializer:
            class_name: VarianceScaling
            config:
              distribution: uniform
              mode: fan_avg
              scale: 1.0
              seed: null
          kernel_regularizer: null
          name: dense_1
          trainable: true
          units: 90
          use_bias: true
      name: time_distributed_1
      trainable: true
  - class_name: Activation
    config:
      activation: softmax
      name: activation_1
      trainable: true
  name: sequential_1
keras_version: 2.2.4
backend: tensorflow
class_name: Sequential
config:
  layers:
  - class_name: LSTM
    config:
      activation: tanh
      activity_regularizer: null
      batch_input_shape: !!python/tuple
      - 128
      - 60
      - 90
      bias_constraint: null
      bias_initializer:
        class_name: Zeros
        config: {}
      bias_regularizer: null
      dropout: 0.0
      dtype: float32
      go_backwards: false
      implementation: 1
      kernel_constraint: null
      kernel_initializer:
        class_name: VarianceScaling
        config:
          distribution: uniform
          mode: fan_avg
          scale: 1.0
          seed: null
      kernel_regularizer: null
      name: lstm_1
      recurrent_activation: hard_sigmoid
      recurrent_constraint: null
      recurrent_dropout: 0.0
      recurrent_initializer:
        class_name: Orthogonal
        config:
          gain: 1.0
          seed: null
      recurrent_regularizer: null
      return_sequences: true
      return_state: false
      stateful: true
      trainable: true
      unit_forget_bias: true
      units: 256
      unroll: false
      use_bias: true
  - class_name: Dropout
    config:
      name: dropout_1
      noise_shape: null
      rate: 0.2
      seed: null
      trainable: true
  - class_name: LSTM
    config:
      activation: tanh
      activity_regularizer: null
      batch_input_shape: !!python/tuple
      - 128
      - 60
      - 90
      bias_constraint: null
      bias_initializer:
        class_name: Zeros
        config: {}
      bias_regularizer: null
      dropout: 0.0
      dtype: float32
      go_backwards: false
      implementation: 1
      kernel_constraint: null
      kernel_initializer:
        class_name: VarianceScaling
        config:
          distribution: uniform
          mode: fan_avg
          scale: 1.0
          seed: null
      kernel_regularizer: null
      name: lstm_2
      recurrent_activation: hard_sigmoid
      recurrent_constraint: null
      recurrent_dropout: 0.0
      recurrent_initializer:
        class_name: Orthogonal
        config:
          gain: 1.0
          seed: null
      recurrent_regularizer: null
      return_sequences: true
      return_state: false
      stateful: true
      trainable: true
      unit_forget_bias: true
      units: 256
      unroll: false
      use_bias: true
  - class_name: Dropout
    config:
      name: dropout_2
      noise_shape: null
      rate: 0.2
      seed: null
      trainable: true
  - class_name: LSTM
    config:
      activation: tanh
      activity_regularizer: null
      batch_input_shape: !!python/tuple
      - 128
      - 60
      - 90
      bias_constraint: null
      bias_initializer:
        class_name: Zeros
        config: {}
      bias_regularizer: null
      dropout: 0.0
      dtype: float32
      go_backwards: false
      implementation: 1
      kernel_constraint: null
      kernel_initializer:
        class_name: VarianceScaling
        config:
          distribution: uniform
          mode: fan_avg
          scale: 1.0
          seed: null
      kernel_regularizer: null
      name: lstm_3
      recurrent_activation: hard_sigmoid
      recurrent_constraint: null
      recurrent_dropout: 0.0
      recurrent_initializer:
        class_name: Orthogonal
        config:
          gain: 1.0
          seed: null
      recurrent_regularizer: null
      return_sequences: true
      return_state: false
      stateful: true
      trainable: true
      unit_forget_bias: true
      units: 256
      unroll: false
      use_bias: true
  - class_name: Dropout
    config:
      name: dropout_3
      noise_shape: null
      rate: 0.2
      seed: null
      trainable: true
  - class_name: TimeDistributed
    config:
      layer:
        class_name: Dense
        config:
          activation: linear
          activity_regularizer: null
          bias_constraint: null
          bias_initializer:
            class_name: Zeros
            config: {}
          bias_regularizer: null
          kernel_constraint: null
          kernel_initializer:
            class_name: VarianceScaling
            config:
              distribution: uniform
              mode: fan_avg
              scale: 1.0
              seed: null
          kernel_regularizer: null
          name: dense_1
          trainable: true
          units: 90
          use_bias: true
      name: time_distributed_1
      trainable: true
  - class_name: Activation
    config:
      activation: softmax
      name: activation_1
      trainable: true
  name: sequential_1
keras_version: 2.2.4
backend: tensorflow
class_name: Sequential
config:
  layers:
  - class_name: LSTM
    config:
      activation: tanh
      activity_regularizer: null
      batch_input_shape: !!python/tuple
      - 128
      - 60
      - 90
      bias_constraint: null
      bias_initializer:
        class_name: Zeros
        config: {}
      bias_regularizer: null
      dropout: 0.0
      dtype: float32
      go_backwards: false
      implementation: 1
      kernel_constraint: null
      kernel_initializer:
        class_name: VarianceScaling
        config:
          distribution: uniform
          mode: fan_avg
          scale: 1.0
          seed: null
      kernel_regularizer: null
      name: lstm_1
      recurrent_activation: hard_sigmoid
      recurrent_constraint: null
      recurrent_dropout: 0.0
      recurrent_initializer:
        class_name: Orthogonal
        config:
          gain: 1.0
          seed: null
      recurrent_regularizer: null
      return_sequences: true
      return_state: false
      stateful: true
      trainable: true
      unit_forget_bias: true
      units: 256
      unroll: false
      use_bias: true
  - class_name: Dropout
    config:
      name: dropout_1
      noise_shape: null
      rate: 0.2
      seed: null
      trainable: true
  - class_name: LSTM
    config:
      activation: tanh
      activity_regularizer: null
      batch_input_shape: !!python/tuple
      - 128
      - 60
      - 90
      bias_constraint: null
      bias_initializer:
        class_name: Zeros
        config: {}
      bias_regularizer: null
      dropout: 0.0
      dtype: float32
      go_backwards: false
      implementation: 1
      kernel_constraint: null
      kernel_initializer:
        class_name: VarianceScaling
        config:
          distribution: uniform
          mode: fan_avg
          scale: 1.0
          seed: null
      kernel_regularizer: null
      name: lstm_2
      recurrent_activation: hard_sigmoid
      recurrent_constraint: null
      recurrent_dropout: 0.0
      recurrent_initializer:
        class_name: Orthogonal
        config:
          gain: 1.0
          seed: null
      recurrent_regularizer: null
      return_sequences: true
      return_state: false
      stateful: true
      trainable: true
      unit_forget_bias: true
      units: 256
      unroll: false
      use_bias: true
  - class_name: Dropout
    config:
      name: dropout_2
      noise_shape: null
      rate: 0.2
      seed: null
      trainable: true
  - class_name: LSTM
    config:
      activation: tanh
      activity_regularizer: null
      batch_input_shape: !!python/tuple
      - 128
      - 60
      - 90
      bias_constraint: null
      bias_initializer:
        class_name: Zeros
        config: {}
      bias_regularizer: null
      dropout: 0.0
      dtype: float32
      go_backwards: false
      implementation: 1
      kernel_constraint: null
      kernel_initializer:
        class_name: VarianceScaling
        config:
          distribution: uniform
          mode: fan_avg
          scale: 1.0
          seed: null
      kernel_regularizer: null
      name: lstm_3
      recurrent_activation: hard_sigmoid
      recurrent_constraint: null
      recurrent_dropout: 0.0
      recurrent_initializer:
        class_name: Orthogonal
        config:
          gain: 1.0
          seed: null
      recurrent_regularizer: null
      return_sequences: true
      return_state: false
      stateful: true
      trainable: true
      unit_forget_bias: true
      units: 256
      unroll: false
      use_bias: true
  - class_name: Dropout
    config:
      name: dropout_3
      noise_shape: null
      rate: 0.2
      seed: null
      trainable: true
  - class_name: Dense
    config:
      activation: linear
      activity_regularizer: null
      bias_constraint: null
      bias_initializer:
        class_name: Zeros
        config: {}
      bias_regularizer: null
      kernel_constraint: null
      kernel_initializer:
        class_name: VarianceScaling
        config:
          distribution: uniform
          mode: fan_avg
          scale: 1.0
          seed: null
      kernel_regularizer: null
      name: dense_1
      trainable: true
      units: 90
      use_bias: true
  - class_name: Activation
    config:
      activation: softmax
      name: activation_1
      trainable: true
  name: sequential_1
keras_version: 2.2.4
backend: tensorflow
class_name: Sequential
config:
  layers:
  - class_name: LSTM
    config:
      activation: tanh
      activity_regularizer: null
      batch_input_shape: !!python/tuple
      - 128
      - 60
      - 90
      bias_constraint: null
      bias_initializer:
        class_name: Zeros
        config: {}
      bias_regularizer: null
      dropout: 0.0
      dtype: float32
      go_backwards: false
      implementation: 1
      kernel_constraint: null
      kernel_initializer:
        class_name: VarianceScaling
        config:
          distribution: uniform
          mode: fan_avg
          scale: 1.0
          seed: null
      kernel_regularizer: null
      name: lstm_1
      recurrent_activation: hard_sigmoid
      recurrent_constraint: null
      recurrent_dropout: 0.0
      recurrent_initializer:
        class_name: Orthogonal
        config:
          gain: 1.0
          seed: null
      recurrent_regularizer: null
      return_sequences: true
      return_state: false
      stateful: true
      trainable: true
      unit_forget_bias: true
      units: 256
      unroll: false
      use_bias: true
  - class_name: Dropout
    config:
      name: dropout_1
      noise_shape: null
      rate: 0.2
      seed: null
      trainable: true
  - class_name: LSTM
    config:
      activation: tanh
      activity_regularizer: null
      batch_input_shape: !!python/tuple
      - 128
      - 60
      - 90
      bias_constraint: null
      bias_initializer:
        class_name: Zeros
        config: {}
      bias_regularizer: null
      dropout: 0.0
      dtype: float32
      go_backwards: false
      implementation: 1
      kernel_constraint: null
      kernel_initializer:
        class_name: VarianceScaling
        config:
          distribution: uniform
          mode: fan_avg
          scale: 1.0
          seed: null
      kernel_regularizer: null
      name: lstm_2
      recurrent_activation: hard_sigmoid
      recurrent_constraint: null
      recurrent_dropout: 0.0
      recurrent_initializer:
        class_name: Orthogonal
        config:
          gain: 1.0
          seed: null
      recurrent_regularizer: null
      return_sequences: true
      return_state: false
      stateful: true
      trainable: true
      unit_forget_bias: true
      units: 256
      unroll: false
      use_bias: true
  - class_name: Dropout
    config:
      name: dropout_2
      noise_shape: null
      rate: 0.2
      seed: null
      trainable: true
  - class_name: LSTM
    config:
      activation: tanh
      activity_regularizer: null
      batch_input_shape: !!python/tuple
      - 128
      - 60
      - 90
      bias_constraint: null
      bias_initializer:
        class_name: Zeros
        config: {}
      bias_regularizer: null
      dropout: 0.0
      dtype: float32
      go_backwards: false
      implementation: 1
      kernel_constraint: null
      kernel_initializer:
        class_name: VarianceScaling
        config:
          distribution: uniform
          mode: fan_avg
          scale: 1.0
          seed: null
      kernel_regularizer: null
      name: lstm_3
      recurrent_activation: hard_sigmoid
      recurrent_constraint: null
      recurrent_dropout: 0.0
      recurrent_initializer:
        class_name: Orthogonal
        config:
          gain: 1.0
          seed: null
      recurrent_regularizer: null
      return_sequences: true
      return_state: false
      stateful: true
      trainable: true
      unit_forget_bias: true
      units: 256
      unroll: false
      use_bias: true
  - class_name: Dropout
    config:
      name: dropout_3
      noise_shape: null
      rate: 0.2
      seed: null
      trainable: true
  - class_name: TimeDistributed
    config:
      layer:
        class_name: Dense
        config:
          activation: linear
          activity_regularizer: null
          bias_constraint: null
          bias_initializer:
            class_name: Zeros
            config: {}
          bias_regularizer: null
          kernel_constraint: null
          kernel_initializer:
            class_name: VarianceScaling
            config:
              distribution: uniform
              mode: fan_avg
              scale: 1.0
              seed: null
          kernel_regularizer: null
          name: dense_1
          trainable: true
          units: 90
          use_bias: true
      name: time_distributed_1
      trainable: true
  - class_name: Activation
    config:
      activation: softmax
      name: activation_1
      trainable: true
  name: sequential_1
keras_version: 2.2.4
backend: tensorflow
class_name: Sequential
config:
  layers:
  - class_name: LSTM
    config:
      activation: tanh
      activity_regularizer: null
      batch_input_shape: !!python/tuple
      - 128
      - 60
      - 90
      bias_constraint: null
      bias_initializer:
        class_name: Zeros
        config: {}
      bias_regularizer: null
      dropout: 0.0
      dtype: float32
      go_backwards: false
      implementation: 1
      kernel_constraint: null
      kernel_initializer:
        class_name: VarianceScaling
        config:
          distribution: uniform
          mode: fan_avg
          scale: 1.0
          seed: null
      kernel_regularizer: null
      name: lstm_1
      recurrent_activation: hard_sigmoid
      recurrent_constraint: null
      recurrent_dropout: 0.0
      recurrent_initializer:
        class_name: Orthogonal
        config:
          gain: 1.0
          seed: null
      recurrent_regularizer: null
      return_sequences: true
      return_state: false
      stateful: true
      trainable: true
      unit_forget_bias: true
      units: 256
      unroll: false
      use_bias: true
  - class_name: LSTM
    config:
      activation: tanh
      activity_regularizer: null
      bias_constraint: null
      bias_initializer:
        class_name: Zeros
        config: {}
      bias_regularizer: null
      dropout: 0.0
      go_backwards: false
      implementation: 1
      kernel_constraint: null
      kernel_initializer:
        class_name: VarianceScaling
        config:
          distribution: uniform
          mode: fan_avg
          scale: 1.0
          seed: null
      kernel_regularizer: null
      name: lstm_2
      recurrent_activation: hard_sigmoid
      recurrent_constraint: null
      recurrent_dropout: 0.0
      recurrent_initializer:
        class_name: Orthogonal
        config:
          gain: 1.0
          seed: null
      recurrent_regularizer: null
      return_sequences: true
      return_state: false
      stateful: true
      trainable: true
      unit_forget_bias: true
      units: 256
      unroll: false
      use_bias: true
  - class_name: Dropout
    config:
      name: dropout_1
      noise_shape: null
      rate: 0.2
      seed: null
      trainable: true
  - class_name: LSTM
    config:
      activation: tanh
      activity_regularizer: null
      bias_constraint: null
      bias_initializer:
        class_name: Zeros
        config: {}
      bias_regularizer: null
      dropout: 0.0
      go_backwards: false
      implementation: 1
      kernel_constraint: null
      kernel_initializer:
        class_name: VarianceScaling
        config:
          distribution: uniform
          mode: fan_avg
          scale: 1.0
          seed: null
      kernel_regularizer: null
      name: lstm_3
      recurrent_activation: hard_sigmoid
      recurrent_constraint: null
      recurrent_dropout: 0.0
      recurrent_initializer:
        class_name: Orthogonal
        config:
          gain: 1.0
          seed: null
      recurrent_regularizer: null
      return_sequences: true
      return_state: false
      stateful: true
      trainable: true
      unit_forget_bias: true
      units: 256
      unroll: false
      use_bias: true
  - class_name: Dropout
    config:
      name: dropout_2
      noise_shape: null
      rate: 0.2
      seed: null
      trainable: true
  - class_name: LSTM
    config:
      activation: tanh
      activity_regularizer: null
      bias_constraint: null
      bias_initializer:
        class_name: Zeros
        config: {}
      bias_regularizer: null
      dropout: 0.0
      go_backwards: false
      implementation: 1
      kernel_constraint: null
      kernel_initializer:
        class_name: VarianceScaling
        config:
          distribution: uniform
          mode: fan_avg
          scale: 1.0
          seed: null
      kernel_regularizer: null
      name: lstm_4
      recurrent_activation: hard_sigmoid
      recurrent_constraint: null
      recurrent_dropout: 0.0
      recurrent_initializer:
        class_name: Orthogonal
        config:
          gain: 1.0
          seed: null
      recurrent_regularizer: null
      return_sequences: true
      return_state: false
      stateful: true
      trainable: true
      unit_forget_bias: true
      units: 256
      unroll: false
      use_bias: true
  - class_name: Dropout
    config:
      name: dropout_3
      noise_shape: null
      rate: 0.2
      seed: null
      trainable: true
  - class_name: TimeDistributed
    config:
      layer:
        class_name: Dense
        config:
          activation: linear
          activity_regularizer: null
          bias_constraint: null
          bias_initializer:
            class_name: Zeros
            config: {}
          bias_regularizer: null
          kernel_constraint: null
          kernel_initializer:
            class_name: VarianceScaling
            config:
              distribution: uniform
              mode: fan_avg
              scale: 1.0
              seed: null
          kernel_regularizer: null
          name: dense_1
          trainable: true
          units: 90
          use_bias: true
      name: time_distributed_1
      trainable: true
  - class_name: Activation
    config:
      activation: softmax
      name: activation_1
      trainable: true
  name: sequential_1
keras_version: 2.2.4
backend: tensorflow
class_name: Sequential
config:
  layers:
  - class_name: LSTM
    config:
      activation: tanh
      activity_regularizer: null
      batch_input_shape: !!python/tuple
      - 128
      - 60
      - 90
      bias_constraint: null
      bias_initializer:
        class_name: Zeros
        config: {}
      bias_regularizer: null
      dropout: 0.0
      dtype: float32
      go_backwards: false
      implementation: 1
      kernel_constraint: null
      kernel_initializer:
        class_name: VarianceScaling
        config:
          distribution: uniform
          mode: fan_avg
          scale: 1.0
          seed: null
      kernel_regularizer: null
      name: lstm_1
      recurrent_activation: hard_sigmoid
      recurrent_constraint: null
      recurrent_dropout: 0.0
      recurrent_initializer:
        class_name: Orthogonal
        config:
          gain: 1.0
          seed: null
      recurrent_regularizer: null
      return_sequences: true
      return_state: false
      stateful: true
      trainable: true
      unit_forget_bias: true
      units: 256
      unroll: false
      use_bias: true
  - class_name: LSTM
    config:
      activation: tanh
      activity_regularizer: null
      bias_constraint: null
      bias_initializer:
        class_name: Zeros
        config: {}
      bias_regularizer: null
      dropout: 0.0
      go_backwards: false
      implementation: 1
      kernel_constraint: null
      kernel_initializer:
        class_name: VarianceScaling
        config:
          distribution: uniform
          mode: fan_avg
          scale: 1.0
          seed: null
      kernel_regularizer: null
      name: lstm_2
      recurrent_activation: hard_sigmoid
      recurrent_constraint: null
      recurrent_dropout: 0.0
      recurrent_initializer:
        class_name: Orthogonal
        config:
          gain: 1.0
          seed: null
      recurrent_regularizer: null
      return_sequences: true
      return_state: false
      stateful: true
      trainable: true
      unit_forget_bias: true
      units: 256
      unroll: false
      use_bias: true
  - class_name: Dropout
    config:
      name: dropout_1
      noise_shape: null
      rate: 0.2
      seed: null
      trainable: true
  - class_name: LSTM
    config:
      activation: tanh
      activity_regularizer: null
      bias_constraint: null
      bias_initializer:
        class_name: Zeros
        config: {}
      bias_regularizer: null
      dropout: 0.0
      go_backwards: false
      implementation: 1
      kernel_constraint: null
      kernel_initializer:
        class_name: VarianceScaling
        config:
          distribution: uniform
          mode: fan_avg
          scale: 1.0
          seed: null
      kernel_regularizer: null
      name: lstm_3
      recurrent_activation: hard_sigmoid
      recurrent_constraint: null
      recurrent_dropout: 0.0
      recurrent_initializer:
        class_name: Orthogonal
        config:
          gain: 1.0
          seed: null
      recurrent_regularizer: null
      return_sequences: true
      return_state: false
      stateful: true
      trainable: true
      unit_forget_bias: true
      units: 256
      unroll: false
      use_bias: true
  - class_name: Dropout
    config:
      name: dropout_2
      noise_shape: null
      rate: 0.2
      seed: null
      trainable: true
  - class_name: LSTM
    config:
      activation: tanh
      activity_regularizer: null
      bias_constraint: null
      bias_initializer:
        class_name: Zeros
        config: {}
      bias_regularizer: null
      dropout: 0.0
      go_backwards: false
      implementation: 1
      kernel_constraint: null
      kernel_initializer:
        class_name: VarianceScaling
        config:
          distribution: uniform
          mode: fan_avg
          scale: 1.0
          seed: null
      kernel_regularizer: null
      name: lstm_4
      recurrent_activation: hard_sigmoid
      recurrent_constraint: null
      recurrent_dropout: 0.0
      recurrent_initializer:
        class_name: Orthogonal
        config:
          gain: 1.0
          seed: null
      recurrent_regularizer: null
      return_sequences: true
      return_state: false
      stateful: false
      trainable: true
      unit_forget_bias: true
      units: 256
      unroll: false
      use_bias: true
  - class_name: Dropout
    config:
      name: dropout_3
      noise_shape: null
      rate: 0.2
      seed: null
      trainable: true
  - class_name: TimeDistributed
    config:
      layer:
        class_name: Dense
        config:
          activation: linear
          activity_regularizer: null
          bias_constraint: null
          bias_initializer:
            class_name: Zeros
            config: {}
          bias_regularizer: null
          kernel_constraint: null
          kernel_initializer:
            class_name: VarianceScaling
            config:
              distribution: uniform
              mode: fan_avg
              scale: 1.0
              seed: null
          kernel_regularizer: null
          name: dense_1
          trainable: true
          units: 90
          use_bias: true
      name: time_distributed_1
      trainable: true
  - class_name: Activation
    config:
      activation: softmax
      name: activation_1
      trainable: true
  name: sequential_1
keras_version: 2.2.4
backend: tensorflow
class_name: Sequential
config:
  layers:
  - class_name: LSTM
    config:
      activation: tanh
      activity_regularizer: null
      batch_input_shape: !!python/tuple
      - 128
      - 60
      - 90
      bias_constraint: null
      bias_initializer:
        class_name: Zeros
        config: {}
      bias_regularizer: null
      dropout: 0.0
      dtype: float32
      go_backwards: false
      implementation: 1
      kernel_constraint: null
      kernel_initializer:
        class_name: VarianceScaling
        config:
          distribution: uniform
          mode: fan_avg
          scale: 1.0
          seed: null
      kernel_regularizer: null
      name: lstm_1
      recurrent_activation: hard_sigmoid
      recurrent_constraint: null
      recurrent_dropout: 0.0
      recurrent_initializer:
        class_name: Orthogonal
        config:
          gain: 1.0
          seed: null
      recurrent_regularizer: null
      return_sequences: true
      return_state: false
      stateful: false
      trainable: true
      unit_forget_bias: true
      units: 256
      unroll: false
      use_bias: true
  - class_name: LSTM
    config:
      activation: tanh
      activity_regularizer: null
      bias_constraint: null
      bias_initializer:
        class_name: Zeros
        config: {}
      bias_regularizer: null
      dropout: 0.0
      go_backwards: false
      implementation: 1
      kernel_constraint: null
      kernel_initializer:
        class_name: VarianceScaling
        config:
          distribution: uniform
          mode: fan_avg
          scale: 1.0
          seed: null
      kernel_regularizer: null
      name: lstm_2
      recurrent_activation: hard_sigmoid
      recurrent_constraint: null
      recurrent_dropout: 0.0
      recurrent_initializer:
        class_name: Orthogonal
        config:
          gain: 1.0
          seed: null
      recurrent_regularizer: null
      return_sequences: true
      return_state: false
      stateful: false
      trainable: true
      unit_forget_bias: true
      units: 256
      unroll: false
      use_bias: true
  - class_name: Dropout
    config:
      name: dropout_1
      noise_shape: null
      rate: 0.2
      seed: null
      trainable: true
  - class_name: LSTM
    config:
      activation: tanh
      activity_regularizer: null
      bias_constraint: null
      bias_initializer:
        class_name: Zeros
        config: {}
      bias_regularizer: null
      dropout: 0.0
      go_backwards: false
      implementation: 1
      kernel_constraint: null
      kernel_initializer:
        class_name: VarianceScaling
        config:
          distribution: uniform
          mode: fan_avg
          scale: 1.0
          seed: null
      kernel_regularizer: null
      name: lstm_3
      recurrent_activation: hard_sigmoid
      recurrent_constraint: null
      recurrent_dropout: 0.0
      recurrent_initializer:
        class_name: Orthogonal
        config:
          gain: 1.0
          seed: null
      recurrent_regularizer: null
      return_sequences: true
      return_state: false
      stateful: false
      trainable: true
      unit_forget_bias: true
      units: 256
      unroll: false
      use_bias: true
  - class_name: Dropout
    config:
      name: dropout_2
      noise_shape: null
      rate: 0.2
      seed: null
      trainable: true
  - class_name: LSTM
    config:
      activation: tanh
      activity_regularizer: null
      bias_constraint: null
      bias_initializer:
        class_name: Zeros
        config: {}
      bias_regularizer: null
      dropout: 0.0
      go_backwards: false
      implementation: 1
      kernel_constraint: null
      kernel_initializer:
        class_name: VarianceScaling
        config:
          distribution: uniform
          mode: fan_avg
          scale: 1.0
          seed: null
      kernel_regularizer: null
      name: lstm_4
      recurrent_activation: hard_sigmoid
      recurrent_constraint: null
      recurrent_dropout: 0.0
      recurrent_initializer:
        class_name: Orthogonal
        config:
          gain: 1.0
          seed: null
      recurrent_regularizer: null
      return_sequences: true
      return_state: false
      stateful: false
      trainable: true
      unit_forget_bias: true
      units: 256
      unroll: false
      use_bias: true
  - class_name: Dropout
    config:
      name: dropout_3
      noise_shape: null
      rate: 0.2
      seed: null
      trainable: true
  - class_name: TimeDistributed
    config:
      layer:
        class_name: Dense
        config:
          activation: linear
          activity_regularizer: null
          bias_constraint: null
          bias_initializer:
            class_name: Zeros
            config: {}
          bias_regularizer: null
          kernel_constraint: null
          kernel_initializer:
            class_name: VarianceScaling
            config:
              distribution: uniform
              mode: fan_avg
              scale: 1.0
              seed: null
          kernel_regularizer: null
          name: dense_1
          trainable: true
          units: 90
          use_bias: true
      name: time_distributed_1
      trainable: true
  - class_name: Activation
    config:
      activation: softmax
      name: activation_1
      trainable: true
  name: sequential_1
keras_version: 2.2.4
backend: tensorflow
class_name: Sequential
config:
  layers:
  - class_name: LSTM
    config:
      activation: tanh
      activity_regularizer: null
      batch_input_shape: !!python/tuple
      - 128
      - 60
      - 90
      bias_constraint: null
      bias_initializer:
        class_name: Zeros
        config: {}
      bias_regularizer: null
      dropout: 0.0
      dtype: float32
      go_backwards: false
      implementation: 1
      kernel_constraint: null
      kernel_initializer:
        class_name: VarianceScaling
        config:
          distribution: uniform
          mode: fan_avg
          scale: 1.0
          seed: null
      kernel_regularizer: null
      name: lstm_1
      recurrent_activation: hard_sigmoid
      recurrent_constraint: null
      recurrent_dropout: 0.0
      recurrent_initializer:
        class_name: Orthogonal
        config:
          gain: 1.0
          seed: null
      recurrent_regularizer: null
      return_sequences: true
      return_state: false
      stateful: true
      trainable: true
      unit_forget_bias: true
      units: 256
      unroll: false
      use_bias: true
  - class_name: LSTM
    config:
      activation: tanh
      activity_regularizer: null
      bias_constraint: null
      bias_initializer:
        class_name: Zeros
        config: {}
      bias_regularizer: null
      dropout: 0.0
      go_backwards: false
      implementation: 1
      kernel_constraint: null
      kernel_initializer:
        class_name: VarianceScaling
        config:
          distribution: uniform
          mode: fan_avg
          scale: 1.0
          seed: null
      kernel_regularizer: null
      name: lstm_2
      recurrent_activation: hard_sigmoid
      recurrent_constraint: null
      recurrent_dropout: 0.0
      recurrent_initializer:
        class_name: Orthogonal
        config:
          gain: 1.0
          seed: null
      recurrent_regularizer: null
      return_sequences: true
      return_state: false
      stateful: true
      trainable: true
      unit_forget_bias: true
      units: 256
      unroll: false
      use_bias: true
  - class_name: Dropout
    config:
      name: dropout_1
      noise_shape: null
      rate: 0.2
      seed: null
      trainable: true
  - class_name: LSTM
    config:
      activation: tanh
      activity_regularizer: null
      bias_constraint: null
      bias_initializer:
        class_name: Zeros
        config: {}
      bias_regularizer: null
      dropout: 0.0
      go_backwards: false
      implementation: 1
      kernel_constraint: null
      kernel_initializer:
        class_name: VarianceScaling
        config:
          distribution: uniform
          mode: fan_avg
          scale: 1.0
          seed: null
      kernel_regularizer: null
      name: lstm_3
      recurrent_activation: hard_sigmoid
      recurrent_constraint: null
      recurrent_dropout: 0.0
      recurrent_initializer:
        class_name: Orthogonal
        config:
          gain: 1.0
          seed: null
      recurrent_regularizer: null
      return_sequences: true
      return_state: false
      stateful: true
      trainable: true
      unit_forget_bias: true
      units: 256
      unroll: false
      use_bias: true
  - class_name: Dropout
    config:
      name: dropout_2
      noise_shape: null
      rate: 0.2
      seed: null
      trainable: true
  - class_name: LSTM
    config:
      activation: tanh
      activity_regularizer: null
      bias_constraint: null
      bias_initializer:
        class_name: Zeros
        config: {}
      bias_regularizer: null
      dropout: 0.0
      go_backwards: false
      implementation: 1
      kernel_constraint: null
      kernel_initializer:
        class_name: VarianceScaling
        config:
          distribution: uniform
          mode: fan_avg
          scale: 1.0
          seed: null
      kernel_regularizer: null
      name: lstm_4
      recurrent_activation: hard_sigmoid
      recurrent_constraint: null
      recurrent_dropout: 0.0
      recurrent_initializer:
        class_name: Orthogonal
        config:
          gain: 1.0
          seed: null
      recurrent_regularizer: null
      return_sequences: false
      return_state: false
      stateful: false
      trainable: true
      unit_forget_bias: true
      units: 256
      unroll: false
      use_bias: true
  - class_name: Dropout
    config:
      name: dropout_3
      noise_shape: null
      rate: 0.2
      seed: null
      trainable: true
  - class_name: Dense
    config:
      activation: linear
      activity_regularizer: null
      bias_constraint: null
      bias_initializer:
        class_name: Zeros
        config: {}
      bias_regularizer: null
      kernel_constraint: null
      kernel_initializer:
        class_name: VarianceScaling
        config:
          distribution: uniform
          mode: fan_avg
          scale: 1.0
          seed: null
      kernel_regularizer: null
      name: dense_1
      trainable: true
      units: 90
      use_bias: true
  - class_name: Activation
    config:
      activation: softmax
      name: activation_1
      trainable: true
  name: sequential_1
keras_version: 2.2.4
backend: tensorflow
class_name: Sequential
config:
  layers:
  - class_name: LSTM
    config:
      activation: tanh
      activity_regularizer: null
      batch_input_shape: !!python/tuple
      - 128
      - 60
      - 90
      bias_constraint: null
      bias_initializer:
        class_name: Zeros
        config: {}
      bias_regularizer: null
      dropout: 0.0
      dtype: float32
      go_backwards: false
      implementation: 1
      kernel_constraint: null
      kernel_initializer:
        class_name: VarianceScaling
        config:
          distribution: uniform
          mode: fan_avg
          scale: 1.0
          seed: null
      kernel_regularizer: null
      name: lstm_1
      recurrent_activation: hard_sigmoid
      recurrent_constraint: null
      recurrent_dropout: 0.0
      recurrent_initializer:
        class_name: Orthogonal
        config:
          gain: 1.0
          seed: null
      recurrent_regularizer: null
      return_sequences: true
      return_state: false
      stateful: true
      trainable: true
      unit_forget_bias: true
      units: 256
      unroll: false
      use_bias: true
  - class_name: LSTM
    config:
      activation: tanh
      activity_regularizer: null
      bias_constraint: null
      bias_initializer:
        class_name: Zeros
        config: {}
      bias_regularizer: null
      dropout: 0.0
      go_backwards: false
      implementation: 1
      kernel_constraint: null
      kernel_initializer:
        class_name: VarianceScaling
        config:
          distribution: uniform
          mode: fan_avg
          scale: 1.0
          seed: null
      kernel_regularizer: null
      name: lstm_2
      recurrent_activation: hard_sigmoid
      recurrent_constraint: null
      recurrent_dropout: 0.0
      recurrent_initializer:
        class_name: Orthogonal
        config:
          gain: 1.0
          seed: null
      recurrent_regularizer: null
      return_sequences: true
      return_state: false
      stateful: true
      trainable: true
      unit_forget_bias: true
      units: 256
      unroll: false
      use_bias: true
  - class_name: Dropout
    config:
      name: dropout_1
      noise_shape: null
      rate: 0.2
      seed: null
      trainable: true
  - class_name: LSTM
    config:
      activation: tanh
      activity_regularizer: null
      bias_constraint: null
      bias_initializer:
        class_name: Zeros
        config: {}
      bias_regularizer: null
      dropout: 0.0
      go_backwards: false
      implementation: 1
      kernel_constraint: null
      kernel_initializer:
        class_name: VarianceScaling
        config:
          distribution: uniform
          mode: fan_avg
          scale: 1.0
          seed: null
      kernel_regularizer: null
      name: lstm_3
      recurrent_activation: hard_sigmoid
      recurrent_constraint: null
      recurrent_dropout: 0.0
      recurrent_initializer:
        class_name: Orthogonal
        config:
          gain: 1.0
          seed: null
      recurrent_regularizer: null
      return_sequences: true
      return_state: false
      stateful: true
      trainable: true
      unit_forget_bias: true
      units: 256
      unroll: false
      use_bias: true
  - class_name: Dropout
    config:
      name: dropout_2
      noise_shape: null
      rate: 0.2
      seed: null
      trainable: true
  - class_name: LSTM
    config:
      activation: tanh
      activity_regularizer: null
      bias_constraint: null
      bias_initializer:
        class_name: Zeros
        config: {}
      bias_regularizer: null
      dropout: 0.0
      go_backwards: false
      implementation: 1
      kernel_constraint: null
      kernel_initializer:
        class_name: VarianceScaling
        config:
          distribution: uniform
          mode: fan_avg
          scale: 1.0
          seed: null
      kernel_regularizer: null
      name: lstm_4
      recurrent_activation: hard_sigmoid
      recurrent_constraint: null
      recurrent_dropout: 0.0
      recurrent_initializer:
        class_name: Orthogonal
        config:
          gain: 1.0
          seed: null
      recurrent_regularizer: null
      return_sequences: false
      return_state: false
      stateful: false
      trainable: true
      unit_forget_bias: true
      units: 256
      unroll: false
      use_bias: true
  - class_name: Dropout
    config:
      name: dropout_3
      noise_shape: null
      rate: 0.2
      seed: null
      trainable: true
  - class_name: Dense
    config:
      activation: linear
      activity_regularizer: null
      bias_constraint: null
      bias_initializer:
        class_name: Zeros
        config: {}
      bias_regularizer: null
      kernel_constraint: null
      kernel_initializer:
        class_name: VarianceScaling
        config:
          distribution: uniform
          mode: fan_avg
          scale: 1.0
          seed: null
      kernel_regularizer: null
      name: dense_1
      trainable: true
      units: 90
      use_bias: true
  - class_name: Activation
    config:
      activation: softmax
      name: activation_1
      trainable: true
  name: sequential_1
keras_version: 2.2.4
backend: tensorflow
class_name: Sequential
config:
  layers:
  - class_name: LSTM
    config:
      activation: tanh
      activity_regularizer: null
      batch_input_shape: !!python/tuple
      - 128
      - 60
      - 90
      bias_constraint: null
      bias_initializer:
        class_name: Zeros
        config: {}
      bias_regularizer: null
      dropout: 0.0
      dtype: float32
      go_backwards: false
      implementation: 1
      kernel_constraint: null
      kernel_initializer:
        class_name: VarianceScaling
        config:
          distribution: uniform
          mode: fan_avg
          scale: 1.0
          seed: null
      kernel_regularizer: null
      name: lstm_1
      recurrent_activation: hard_sigmoid
      recurrent_constraint: null
      recurrent_dropout: 0.0
      recurrent_initializer:
        class_name: Orthogonal
        config:
          gain: 1.0
          seed: null
      recurrent_regularizer: null
      return_sequences: true
      return_state: false
      stateful: true
      trainable: true
      unit_forget_bias: true
      units: 256
      unroll: false
      use_bias: true
  - class_name: Dropout
    config:
      name: dropout_1
      noise_shape: null
      rate: 0.2
      seed: null
      trainable: true
  - class_name: LSTM
    config:
      activation: tanh
      activity_regularizer: null
      bias_constraint: null
      bias_initializer:
        class_name: Zeros
        config: {}
      bias_regularizer: null
      dropout: 0.0
      go_backwards: false
      implementation: 1
      kernel_constraint: null
      kernel_initializer:
        class_name: VarianceScaling
        config:
          distribution: uniform
          mode: fan_avg
          scale: 1.0
          seed: null
      kernel_regularizer: null
      name: lstm_2
      recurrent_activation: hard_sigmoid
      recurrent_constraint: null
      recurrent_dropout: 0.0
      recurrent_initializer:
        class_name: Orthogonal
        config:
          gain: 1.0
          seed: null
      recurrent_regularizer: null
      return_sequences: true
      return_state: false
      stateful: true
      trainable: true
      unit_forget_bias: true
      units: 256
      unroll: false
      use_bias: true
  - class_name: Dropout
    config:
      name: dropout_2
      noise_shape: null
      rate: 0.2
      seed: null
      trainable: true
  - class_name: LSTM
    config:
      activation: tanh
      activity_regularizer: null
      bias_constraint: null
      bias_initializer:
        class_name: Zeros
        config: {}
      bias_regularizer: null
      dropout: 0.0
      go_backwards: false
      implementation: 1
      kernel_constraint: null
      kernel_initializer:
        class_name: VarianceScaling
        config:
          distribution: uniform
          mode: fan_avg
          scale: 1.0
          seed: null
      kernel_regularizer: null
      name: lstm_3
      recurrent_activation: hard_sigmoid
      recurrent_constraint: null
      recurrent_dropout: 0.0
      recurrent_initializer:
        class_name: Orthogonal
        config:
          gain: 1.0
          seed: null
      recurrent_regularizer: null
      return_sequences: false
      return_state: false
      stateful: false
      trainable: true
      unit_forget_bias: true
      units: 256
      unroll: false
      use_bias: true
  - class_name: Dropout
    config:
      name: dropout_3
      noise_shape: null
      rate: 0.2
      seed: null
      trainable: true
  - class_name: Dense
    config:
      activation: linear
      activity_regularizer: null
      bias_constraint: null
      bias_initializer:
        class_name: Zeros
        config: {}
      bias_regularizer: null
      kernel_constraint: null
      kernel_initializer:
        class_name: VarianceScaling
        config:
          distribution: uniform
          mode: fan_avg
          scale: 1.0
          seed: null
      kernel_regularizer: null
      name: dense_1
      trainable: true
      units: 90
      use_bias: true
  - class_name: Activation
    config:
      activation: softmax
      name: activation_1
      trainable: true
  name: sequential_1
keras_version: 2.2.4
backend: tensorflow
class_name: Sequential
config:
  layers:
  - class_name: LSTM
    config:
      activation: tanh
      activity_regularizer: null
      batch_input_shape: !!python/tuple
      - 128
      - 60
      - 90
      bias_constraint: null
      bias_initializer:
        class_name: Zeros
        config: {}
      bias_regularizer: null
      dropout: 0.0
      dtype: float32
      go_backwards: false
      implementation: 1
      kernel_constraint: null
      kernel_initializer:
        class_name: VarianceScaling
        config:
          distribution: uniform
          mode: fan_avg
          scale: 1.0
          seed: null
      kernel_regularizer: null
      name: lstm_1
      recurrent_activation: hard_sigmoid
      recurrent_constraint: null
      recurrent_dropout: 0.0
      recurrent_initializer:
        class_name: Orthogonal
        config:
          gain: 1.0
          seed: null
      recurrent_regularizer: null
      return_sequences: true
      return_state: false
      stateful: true
      trainable: true
      unit_forget_bias: true
      units: 256
      unroll: false
      use_bias: true
  - class_name: Dropout
    config:
      name: dropout_1
      noise_shape: null
      rate: 0.2
      seed: null
      trainable: true
  - class_name: LSTM
    config:
      activation: tanh
      activity_regularizer: null
      bias_constraint: null
      bias_initializer:
        class_name: Zeros
        config: {}
      bias_regularizer: null
      dropout: 0.0
      go_backwards: false
      implementation: 1
      kernel_constraint: null
      kernel_initializer:
        class_name: VarianceScaling
        config:
          distribution: uniform
          mode: fan_avg
          scale: 1.0
          seed: null
      kernel_regularizer: null
      name: lstm_2
      recurrent_activation: hard_sigmoid
      recurrent_constraint: null
      recurrent_dropout: 0.0
      recurrent_initializer:
        class_name: Orthogonal
        config:
          gain: 1.0
          seed: null
      recurrent_regularizer: null
      return_sequences: true
      return_state: false
      stateful: true
      trainable: true
      unit_forget_bias: true
      units: 256
      unroll: false
      use_bias: true
  - class_name: Dropout
    config:
      name: dropout_2
      noise_shape: null
      rate: 0.2
      seed: null
      trainable: true
  - class_name: LSTM
    config:
      activation: tanh
      activity_regularizer: null
      bias_constraint: null
      bias_initializer:
        class_name: Zeros
        config: {}
      bias_regularizer: null
      dropout: 0.0
      go_backwards: false
      implementation: 1
      kernel_constraint: null
      kernel_initializer:
        class_name: VarianceScaling
        config:
          distribution: uniform
          mode: fan_avg
          scale: 1.0
          seed: null
      kernel_regularizer: null
      name: lstm_3
      recurrent_activation: hard_sigmoid
      recurrent_constraint: null
      recurrent_dropout: 0.0
      recurrent_initializer:
        class_name: Orthogonal
        config:
          gain: 1.0
          seed: null
      recurrent_regularizer: null
      return_sequences: true
      return_state: false
      stateful: true
      trainable: true
      unit_forget_bias: true
      units: 256
      unroll: false
      use_bias: true
  - class_name: Dropout
    config:
      name: dropout_3
      noise_shape: null
      rate: 0.2
      seed: null
      trainable: true
  - class_name: TimeDistributed
    config:
      layer:
        class_name: Dense
        config:
          activation: linear
          activity_regularizer: null
          bias_constraint: null
          bias_initializer:
            class_name: Zeros
            config: {}
          bias_regularizer: null
          kernel_constraint: null
          kernel_initializer:
            class_name: VarianceScaling
            config:
              distribution: uniform
              mode: fan_avg
              scale: 1.0
              seed: null
          kernel_regularizer: null
          name: dense_1
          trainable: true
          units: 90
          use_bias: true
      name: time_distributed_1
      trainable: true
  - class_name: Activation
    config:
      activation: softmax
      name: activation_1
      trainable: true
  name: sequential_1
keras_version: 2.2.4
backend: tensorflow
class_name: Sequential
config:
  layers:
  - class_name: LSTM
    config:
      activation: tanh
      activity_regularizer: null
      batch_input_shape: !!python/tuple
      - 128
      - 60
      - 90
      bias_constraint: null
      bias_initializer:
        class_name: Zeros
        config: {}
      bias_regularizer: null
      dropout: 0.0
      dtype: float32
      go_backwards: false
      implementation: 1
      kernel_constraint: null
      kernel_initializer:
        class_name: VarianceScaling
        config:
          distribution: uniform
          mode: fan_avg
          scale: 1.0
          seed: null
      kernel_regularizer: null
      name: lstm_1
      recurrent_activation: hard_sigmoid
      recurrent_constraint: null
      recurrent_dropout: 0.0
      recurrent_initializer:
        class_name: Orthogonal
        config:
          gain: 1.0
          seed: null
      recurrent_regularizer: null
      return_sequences: true
      return_state: false
      stateful: true
      trainable: true
      unit_forget_bias: true
      units: 256
      unroll: false
      use_bias: true
  - class_name: Dropout
    config:
      name: dropout_1
      noise_shape: null
      rate: 0.2
      seed: null
      trainable: true
  - class_name: LSTM
    config:
      activation: tanh
      activity_regularizer: null
      bias_constraint: null
      bias_initializer:
        class_name: Zeros
        config: {}
      bias_regularizer: null
      dropout: 0.0
      go_backwards: false
      implementation: 1
      kernel_constraint: null
      kernel_initializer:
        class_name: VarianceScaling
        config:
          distribution: uniform
          mode: fan_avg
          scale: 1.0
          seed: null
      kernel_regularizer: null
      name: lstm_2
      recurrent_activation: hard_sigmoid
      recurrent_constraint: null
      recurrent_dropout: 0.0
      recurrent_initializer:
        class_name: Orthogonal
        config:
          gain: 1.0
          seed: null
      recurrent_regularizer: null
      return_sequences: true
      return_state: false
      stateful: true
      trainable: true
      unit_forget_bias: true
      units: 256
      unroll: false
      use_bias: true
  - class_name: Dropout
    config:
      name: dropout_2
      noise_shape: null
      rate: 0.2
      seed: null
      trainable: true
  - class_name: LSTM
    config:
      activation: tanh
      activity_regularizer: null
      bias_constraint: null
      bias_initializer:
        class_name: Zeros
        config: {}
      bias_regularizer: null
      dropout: 0.0
      go_backwards: false
      implementation: 1
      kernel_constraint: null
      kernel_initializer:
        class_name: VarianceScaling
        config:
          distribution: uniform
          mode: fan_avg
          scale: 1.0
          seed: null
      kernel_regularizer: null
      name: lstm_3
      recurrent_activation: hard_sigmoid
      recurrent_constraint: null
      recurrent_dropout: 0.0
      recurrent_initializer:
        class_name: Orthogonal
        config:
          gain: 1.0
          seed: null
      recurrent_regularizer: null
      return_sequences: false
      return_state: false
      stateful: true
      trainable: true
      unit_forget_bias: true
      units: 256
      unroll: false
      use_bias: true
  - class_name: Dropout
    config:
      name: dropout_3
      noise_shape: null
      rate: 0.2
      seed: null
      trainable: true
  - class_name: Dense
    config:
      activation: softmax
      activity_regularizer: null
      bias_constraint: null
      bias_initializer:
        class_name: Zeros
        config: {}
      bias_regularizer: null
      kernel_constraint: null
      kernel_initializer:
        class_name: VarianceScaling
        config:
          distribution: uniform
          mode: fan_avg
          scale: 1.0
          seed: null
      kernel_regularizer: null
      name: dense_1
      trainable: true
      units: 90
      use_bias: true
  name: sequential_1
keras_version: 2.2.4
backend: tensorflow
class_name: Sequential
config:
  layers:
  - class_name: LSTM
    config:
      activation: tanh
      activity_regularizer: null
      batch_input_shape: !!python/tuple
      - 128
      - 60
      - 90
      bias_constraint: null
      bias_initializer:
        class_name: Zeros
        config: {}
      bias_regularizer: null
      dropout: 0.0
      dtype: float32
      go_backwards: false
      implementation: 1
      kernel_constraint: null
      kernel_initializer:
        class_name: VarianceScaling
        config:
          distribution: uniform
          mode: fan_avg
          scale: 1.0
          seed: null
      kernel_regularizer: null
      name: lstm_1
      recurrent_activation: hard_sigmoid
      recurrent_constraint: null
      recurrent_dropout: 0.0
      recurrent_initializer:
        class_name: Orthogonal
        config:
          gain: 1.0
          seed: null
      recurrent_regularizer: null
      return_sequences: true
      return_state: false
      stateful: true
      trainable: true
      unit_forget_bias: true
      units: 256
      unroll: false
      use_bias: true
  - class_name: Dropout
    config:
      name: dropout_1
      noise_shape: null
      rate: 0.2
      seed: null
      trainable: true
  - class_name: LSTM
    config:
      activation: tanh
      activity_regularizer: null
      bias_constraint: null
      bias_initializer:
        class_name: Zeros
        config: {}
      bias_regularizer: null
      dropout: 0.0
      go_backwards: false
      implementation: 1
      kernel_constraint: null
      kernel_initializer:
        class_name: VarianceScaling
        config:
          distribution: uniform
          mode: fan_avg
          scale: 1.0
          seed: null
      kernel_regularizer: null
      name: lstm_2
      recurrent_activation: hard_sigmoid
      recurrent_constraint: null
      recurrent_dropout: 0.0
      recurrent_initializer:
        class_name: Orthogonal
        config:
          gain: 1.0
          seed: null
      recurrent_regularizer: null
      return_sequences: true
      return_state: false
      stateful: true
      trainable: true
      unit_forget_bias: true
      units: 256
      unroll: false
      use_bias: true
  - class_name: Dropout
    config:
      name: dropout_2
      noise_shape: null
      rate: 0.2
      seed: null
      trainable: true
  - class_name: LSTM
    config:
      activation: tanh
      activity_regularizer: null
      bias_constraint: null
      bias_initializer:
        class_name: Zeros
        config: {}
      bias_regularizer: null
      dropout: 0.0
      go_backwards: false
      implementation: 1
      kernel_constraint: null
      kernel_initializer:
        class_name: VarianceScaling
        config:
          distribution: uniform
          mode: fan_avg
          scale: 1.0
          seed: null
      kernel_regularizer: null
      name: lstm_3
      recurrent_activation: hard_sigmoid
      recurrent_constraint: null
      recurrent_dropout: 0.0
      recurrent_initializer:
        class_name: Orthogonal
        config:
          gain: 1.0
          seed: null
      recurrent_regularizer: null
      return_sequences: false
      return_state: false
      stateful: true
      trainable: true
      unit_forget_bias: true
      units: 256
      unroll: false
      use_bias: true
  - class_name: Dropout
    config:
      name: dropout_3
      noise_shape: null
      rate: 0.2
      seed: null
      trainable: true
  - class_name: Dense
    config:
      activation: softmax
      activity_regularizer: null
      bias_constraint: null
      bias_initializer:
        class_name: Zeros
        config: {}
      bias_regularizer: null
      kernel_constraint: null
      kernel_initializer:
        class_name: VarianceScaling
        config:
          distribution: uniform
          mode: fan_avg
          scale: 1.0
          seed: null
      kernel_regularizer: null
      name: dense_1
      trainable: true
      units: 90
      use_bias: true
  name: sequential_1
keras_version: 2.2.4
backend: tensorflow
class_name: Sequential
config:
  layers:
  - class_name: LSTM
    config:
      activation: tanh
      activity_regularizer: null
      batch_input_shape: !!python/tuple
      - 128
      - 60
      - 90
      bias_constraint: null
      bias_initializer:
        class_name: Zeros
        config: {}
      bias_regularizer: null
      dropout: 0.0
      dtype: float32
      go_backwards: false
      implementation: 1
      kernel_constraint: null
      kernel_initializer:
        class_name: VarianceScaling
        config:
          distribution: uniform
          mode: fan_avg
          scale: 1.0
          seed: null
      kernel_regularizer: null
      name: lstm_1
      recurrent_activation: hard_sigmoid
      recurrent_constraint: null
      recurrent_dropout: 0.0
      recurrent_initializer:
        class_name: Orthogonal
        config:
          gain: 1.0
          seed: null
      recurrent_regularizer: null
      return_sequences: true
      return_state: false
      stateful: true
      trainable: true
      unit_forget_bias: true
      units: 256
      unroll: false
      use_bias: true
  - class_name: Dropout
    config:
      name: dropout_1
      noise_shape: null
      rate: 0.2
      seed: null
      trainable: true
  - class_name: LSTM
    config:
      activation: tanh
      activity_regularizer: null
      bias_constraint: null
      bias_initializer:
        class_name: Zeros
        config: {}
      bias_regularizer: null
      dropout: 0.0
      go_backwards: false
      implementation: 1
      kernel_constraint: null
      kernel_initializer:
        class_name: VarianceScaling
        config:
          distribution: uniform
          mode: fan_avg
          scale: 1.0
          seed: null
      kernel_regularizer: null
      name: lstm_2
      recurrent_activation: hard_sigmoid
      recurrent_constraint: null
      recurrent_dropout: 0.0
      recurrent_initializer:
        class_name: Orthogonal
        config:
          gain: 1.0
          seed: null
      recurrent_regularizer: null
      return_sequences: true
      return_state: false
      stateful: true
      trainable: true
      unit_forget_bias: true
      units: 256
      unroll: false
      use_bias: true
  - class_name: Dropout
    config:
      name: dropout_2
      noise_shape: null
      rate: 0.2
      seed: null
      trainable: true
  - class_name: LSTM
    config:
      activation: tanh
      activity_regularizer: null
      bias_constraint: null
      bias_initializer:
        class_name: Zeros
        config: {}
      bias_regularizer: null
      dropout: 0.0
      go_backwards: false
      implementation: 1
      kernel_constraint: null
      kernel_initializer:
        class_name: VarianceScaling
        config:
          distribution: uniform
          mode: fan_avg
          scale: 1.0
          seed: null
      kernel_regularizer: null
      name: lstm_3
      recurrent_activation: hard_sigmoid
      recurrent_constraint: null
      recurrent_dropout: 0.0
      recurrent_initializer:
        class_name: Orthogonal
        config:
          gain: 1.0
          seed: null
      recurrent_regularizer: null
      return_sequences: false
      return_state: false
      stateful: true
      trainable: true
      unit_forget_bias: true
      units: 256
      unroll: false
      use_bias: true
  - class_name: Dropout
    config:
      name: dropout_3
      noise_shape: null
      rate: 0.2
      seed: null
      trainable: true
  - class_name: Dense
    config:
      activation: softmax
      activity_regularizer: null
      bias_constraint: null
      bias_initializer:
        class_name: Zeros
        config: {}
      bias_regularizer: null
      kernel_constraint: null
      kernel_initializer:
        class_name: VarianceScaling
        config:
          distribution: uniform
          mode: fan_avg
          scale: 1.0
          seed: null
      kernel_regularizer: null
      name: dense_1
      trainable: true
      units: 90
      use_bias: true
  name: sequential_1
keras_version: 2.2.4
